Assignmnet3_AIMIA_AmanPawar_22761/ModelWeights/best_discriminator.pth (torch, 300600 bytes, 12 tensors)

main.0.weight f4 [16, 3, 3, 3]
0	0x3e25b124	0.16180855
1	0xbd1c5919	-0.038170908
2	0x3df97668	0.12180787
3	0x3b5c6825	0.003363141
4	0x3e32a1ca	0.1744453
5	0x3dcd8caa	0.10036595
6	0xbdb1f455	-0.08689181
7	0xbe080433	-0.13282852
8	0x3e0c5088	0.13702595
9	0xbe38f43e	-0.18061921
10	0xbd621969	-0.055200014
11	0x3c4e5468	0.012593366
12	0xbd98d833	-0.07463112
13	0xbdc98e4d	-0.09841595
14	0x3e179c0e	0.14805624
15	0xbde0f641	-0.10984469
16	0x3dbca1bd	0.09210537
17	0xbde12291	-0.10992921
18	0x3dde6953	0.10859933
19	0x3c46f184	0.012142543
20	0xbcd3e862	-0.025867645
21	0x3cadd210	0.02121833
22	0x3e13f53e	0.14449021
23	0x3e021fe2	0.12707475
24	0xbdc6a21c	-0.09698889
25	0x3da86ebc	0.08224246
26	0xbdc00cc4	-0.09377435
27	0x3ce46bd5	0.02788345
28	0x3d175ddf	0.036954757
29	0xbe194fe6	-0.14971885
30	0xbdcbeb12	-0.099569455
31	0xbd4d4af0	-0.050120294
32	0x3d55ef4e	0.05223017
33	0x3d815052	0.06314148
34	0x3def3447	0.11679893
35	0x3de33860	0.11094737
36	0x3bdd7393	0.0067581623
37	0xbdd2cfbd	-0.10293529
38	0xbd77d53b	-0.060506087
39	0xbdc67d12	-0.09691824
40	0xbd93bac6	-0.072133586
41	0xbe3c63d2	-0.18397453
42	0x3dc5d4ea	0.09659751
43	0xbd860a0d	-0.06544886
44	0xbe0937fc	-0.13400263
45	0x3aae71ff	0.001330912
46	0x3e38a1ec	0.18030518
47	0x3e1dc410	0.15406823
48	0x3cd30792	0.025760446
49	0x3c932b6c	0.017965041
50	0x3e003644	0.125207
51	0x3d008d0a	0.031384505
52	0xbdee0a01	-0.11623002
53	0x3e21eb39	0.15812387
54	0xbe1efd55	-0.15526326
55	0xbd1ce2ba	-0.03830216
56	0x3e4390cf	0.19098209
57	0x3e00ac0c	0.1256563
58	0xbda509c1	-0.08058501
59	0xbe128c67	-0.14311372
60	0xbd6ca713	-0.057776522
61	0xbde6b585	-0.11265091
62	0x3e033885	0.12814529
63	0x3d9c9e6a	0.076474026
64	0x3d848f6b	0.06472667
65	0xbdc0269b	-0.093823634
66	0xbe07a145	-0.13245113
67	0xbcd0a6c6	-0.025470149
68	0x3ce857fb	0.028362265
69	0x3e1d50d0	0.15362859
70	0xbd7c64b4	-0.061619475
71	0x3e26cd39	0.16289224
72	0x3dc93944	0.09825376
73	0xbe180dba	-0.14848986
74	0xbe37b291	-0.17939211
75	0xbdcda5ff	-0.10041427
76	0xbc193c48	-0.009352751
77	0xbd02ee6f	-0.03196567
78	0x3e418c09	0.18901075
79	0xbd212cb3	-0.03934927
80	0x3d65181c	0.055931196
81	0xbd4ce2dc	-0.050021037
82	0x3dfb87f1	0.12281788
83	0x3e247304	0.160595
84	0x3dec4949	0.115374155
85	0x3e433729	0.1906401
86	0x3d11b05e	0.035568587
87	0xbe0c89d8	-0.13724458
88	0x3bd2d9e7	0.0064346674
89	0x3df17cb7	0.117913656
90	0x3d56e147	0.052460935
91	0x3d9fc18e	0.078005895
92	0x3c8d4291	0.017243655
93	0xbda12dbd	-0.07870052
94	0x3b555bca	0.0032555931
95	0x3d8b07d1	0.067886
96	0x3d4858a0	0.048912644
97	0xbcc0ff67	-0.023559285
98	0xbd7cb1b6	-0.061692916
99	0xbd7a6ad4	-0.061137035
100	0x3d8d9a50	0.069141984
101	0x3cbe70ff	0.02324724
102	0xbcbf02e9	-0.023316817
103	0x3e0eced0	0.1394608
104	0x3bc983ae	0.0061497306
105	0xbadafae1	-0.0016706848
106	0xbd9a267b	-0.07526871
107	0x3e07792c	0.13229817
108	0xbdf41238	-0.119175375
109	0xbd8a0306	-0.06738858
110	0xbd594ea0	-0.0530535
111	0xbd7eb9b8	-0.062188834
112	0xbd34f856	-0.044182144
113	0xbc22e537	-0.009942344
114	0xbda7bf8e	-0.08190833
115	0x3cb42057	0.021988077
116	0xbdc85d22	-0.09783389
117	0x3da1f2b8	0.07907623
118	0x3d743e8f	0.059629973
119	0x3e3af3a9	0.18257011
120	0x3dea568b	0.11442288
121	0xbdd57260	-0.10422206
122	0x3bbb1ac9	0.00570998
123	0xbc0a01ce	-0.008423282
124	0x3e16af61	0.14715339
125	0xbd3d5ec1	-0.046232942
126	0x3db94625	0.09046582
127	0x3d108cfd	0.035290707
128	0xbdef7136	-0.11691515
129	0x3da67bc7	0.081290774
130	0xbd953614	-0.07285705
131	0x3d186f54	0.037215546
132	0xbe2ab3a7	-0.16670094
133	0xbd3917d2	-0.045188732
134	0xbe255eb9	-0.16149415
135	0xbc61297b	-0.0137428
136	0xbe210b64	-0.15727001
137	0xbe0bb6c9	-0.13643946
138	0xbd29690a	-0.04135994
139	0xbe24675a	-0.1605505
140	0xbe336d77	-0.17522226
141	0x3d14c229	0.036317978
142	0x3e30e625	0.17275293
143	0xbe1f49d4	-0.15555507
144	0x3d543338	0.05180666
145	0x3e3e0b84	0.1855908
146	0xbdf55bd7	-0.11980408
147	0xbe47dd2b	-0.19517963
148	0xbd014d44	-0.031567827
149	0xbd6ec06a	-0.05828897
150	0x3e133e6e	0.14379284
151	0x3df41065	0.119171895
152	0xbd976d69	-0.07393915
153	0xbd3a8138	-0.04553339
154	0xbd84931c	-0.064733714
155	0xbe06528e	-0.1311743
156	0x3df2da28	0.11858016
157	0xbc082217	-0.008308909
158	0xbcf2d0dd	-0.02964061
159	0xbdb67f4f	-0.08911001
160	0xbcf65ca2	-0.030073468
161	0x3e306bea	0.17228666
162	0x3deffed5	0.11718527
163	0xbe2b4c52	-0.16728333
164	0x3cba5409	0.02274515
165	0xbe273d5c	-0.16332
166	0xbe34af7f	-0.17645071
167	0x3d90f7a2	0.07078482
168	0x3c2ac752	0.010423498
169	0x3d7a0c74	0.061047032
170	0xbdc3116b	-0.095248066
171	0x3e3007c9	0.1719047
172	0x3e1a019e	0.1503968
173	0xbc81ba8d	-0.015836025
174	0xbdc29311	-0.09500707
175	0xbc770139	-0.015075975
176	0xbcb125d7	-0.021624489
177	0xbd81fe10	-0.06347287
178	0x3c3b6f1c	0.011440065
179	0x3e10ae53	0.14129
180	0x3db97af2	0.09056653
181	0xbda1f669	-0.07908327
182	0xbe093e9a	-0.13402787
183	0x3de845e1	0.11341453
184	0x3dc02e96	0.093838856
185	0x3df1c9d3	0.11806073
186	0x3dd8f8af	0.10594308
187	0xbe03736c	-0.12836999
188	0x3d30eb6e	0.043193273
189	0xbe3b3895	-0.18283303
190	0xbc3e5926	-0.011617934
191	0x3d6fd91d	0.058556665
192	0xbd49834c	-0.04919748
193	0xbd899800	-0.06718445
194	0x3d5461b3	0.051850986
195	0xbd6e0619	-0.058111284
196	0x3e34542d	0.17610236
197	0x3d6e6abd	0.058207262
198	0x3daa292e	0.08308636
199	0xbe3da7cd	-0.18521042
200	0x3e3aed84	0.18254668
201	0x3d101dd5	0.0351847
202	0x3cebebc8	0.028798953
203	0xbcc98920	-0.02460152
204	0x3e117af2	0.14207056
205	0xbdc8f4fa	-0.098123506
206	0xbdd40fbe	-0.10354565
207	0xbd395fb1	-0.045257274
208	0x3e1c5c05	0.15269478
209	0xbde73846	-0.1129003
210	0x3cbd5d8c	0.023115896
211	0x3de9e723	0.11421039
212	0xbabd49a3	-0.0014441501
213	0x3d806752	0.06269707
214	0x3ddaca1e	0.10683082
215	0xbd9fb6fe	-0.07798575
216	0x3e0e2786	0.13882264
217	0x3df866bd	0.12128971
218	0xbd3074a6	-0.043079995
219	0xbda0cecf	-0.078519456
220	0xbe154e4a	-0.14580646
221	0x3d0d3e7f	0.03448343
222	0x3da8c84b	0.08241328
223	0xbda98f17	-0.08279245
224	0xbe3d10ca	-0.18463436
225	0xbd8f7acf	-0.07005846
226	0xbddcfde8	-0.10790616
227	0x3d9d0955	0.076677956
228	0xbdd6571b	-0.10465833
229	0xbdc6a2d1	-0.096990235
230	0xbddf07f7	-0.10890191
231	0x3d8ff481	0.07029057
232	0xbda66678	-0.08125013
233	0xbda58443	-0.080818675
234	0x3d092715	0.033484537
235	0xbe2e3867	-0.17013703
236	0xbe2849be	-0.1643438
237	0x3df5d442	0.120033756
238	0xbd8e55ea	-0.069499806
239	0x3cdc4f42	0.026893262
240	0xbe035c82	-0.12828258
241	0x3d4dd36f	0.050250467
242	0x3e123747	0.14278899
243	0xbe2a6f10	-0.1664393
244	0x3db626ad	0.088940956
245	0x3dab997e	0.08378886
246	0xbd40e2e4	-0.04709138
247	0xbe15a608	-0.14614117
248	0xbe2932bd	-0.16523261
249	0x3d61f7d9	0.055168007
250	0x3e3fc385	0.18726929
251	0xbdfe6cb2	-0.12423076
252	0x3c6442e8	0.013931967
253	0xbc3ee474	-0.011651147
254	0x3e2fd34f	0.17170452
255	0x3de9c382	0.11414243

main.2.weight f4 [32, 16, 3, 3]
0	0x3d1b3b37	0.03789827
1	0x3d39b07a	0.045334317
2	0x3ca32234	0.01991377
3	0xbcf222cc	-0.029557608
4	0x3db6f634	0.08933678
5	0xbce679b2	-0.0281342
6	0xbb89bb9c	-0.004203273
7	0x3bc362f1	0.0059627225
8	0xbd97acda	-0.07406016
9	0xbcf81b2b	-0.030286392
10	0xbda8aa27	-0.08235579
11	0x3cf3b004	0.029747017
12	0x39a35c5a	0.0003115859
13	0xbd8975e8	-0.06711942
14	0xbd9c59dd	-0.076343276
15	0x3d00e05b	0.031463962
16	0x3c853db9	0.016264783
17	0xbd4f9e88	-0.050688297
18	0xbcfe6c18	-0.031057402
19	0x3d1f2905	0.03885748
20	0x3c374dc1	0.011187972
21	0x3d62d43a	0.055378176
22	0x3d94d9af	0.07268082
23	0x3d045ede	0.032317035
24	0xbdb59b2e	-0.08867489
25	0x3d526e34	0.05137463
26	0x3d83945e	0.06424783
27	0xbdaa52ea	-0.08316596
28	0xbb533b79	-0.0032231493
29	0xbd65543d	-0.05598854
30	0x3d7b6268	0.061373144
31	0x3d55bbab	0.052180927
32	0x3d6f619f	0.058442708
33	0xbcb29550	-0.021799713
34	0xbd621182	-0.055192478
35	0x3bdf8775	0.0068215677
36	0x3d80e690	0.06293976
37	0xbd671b67	-0.056422617
38	0xbd3a1910	-0.045434058
39	0x3c661b05	0.014044528
40	0xbd930c88	-0.071801245
41	0xbc8e7e6c	-0.017394267
42	0xbd0841b2	-0.033265777
43	0x3dbc944c	0.09207973
44	0xbcf9397c	-0.030422918
45	0x3ce9cb17	0.028539224
46	0xbbf1bb0e	-0.007377035
47	0xbd79cdab	-0.060987156
48	0x3d805b32	0.06267394
49	0x3d0db6cb	0.034598153
50	0xbc15449b	-0.009110595
51	0xbd924a28	-0.071430504
52	0xbd076807	-0.033058193
53	0x3b0343c7	0.0020029412
54	0xbd3b6cba	-0.045757987
55	0x3d8a7459	0.06760473
56	0xbd756dba	-0.059919097
57	0x3b91dba3	0.0044512316
58	0x3d8f3879	0.06993193
59	0xbd2cf8fa	-0.04222963
60	0x3d0d76e9	0.03453723
61	0x3da16b57	0.078818016
62	0xbc7f7075	-0.015590777
63	0x3b8c47dd	0.0042810277
64	0xbcbaf399	-0.022821235
65	0xbdb6762f	-0.089092605
66	0x3bf8a98d	0.0075885714
67	0xbd77fa2d	-0.06054132
68	0xbd92a4f6	-0.0716037
69	0x3d920930	0.071306586
70	0x3daabafa	0.08336444
71	0x3d90219b	0.0703766
72	0x3d92dd13	0.07171073
73	0xbba72888	-0.0051012672
74	0x3c979398	0.018502995
75	0xbcf4526e	-0.029824462
76	0x3d5e2d6e	0.054242544
77	0x3d260168	0.040528685
78	0x3ca48121	0.020081105
79	0xbd0e83c9	-0.03479365
80	0x3c325cb2	0.010886358
81	0x3daf9ef7	0.08575242
82	0x3d5536ae	0.0520541
83	0xbd09b9fc	-0.033624634
84	0x3cd63c57	0.02615182
85	0xbc3820bf	-0.011238276
86	0xbd2cf285	-0.042223472
87	0xbc9f136c	-0.01941844
88	0xbd83417d	-0.06408975
89	0xbd96be1b	-0.073604785
90	0x3c819800	0.01581955
91	0x3d8d409b	0.06897088
92	0xbb230284	-0.0024873326
93	0x3cd7c4be	0.026338931
94	0xbbb7b5aa	-0.005606373
95	0x3d401a73	0.046900224
96	0xbd4a8c0f	-0.049449977
97	0xbd8314ce	-0.064004526
98	0xbc6052c8	-0.013691612
99	0x3cab0e78	0.020880923
100	0x39caf90b	0.00038713994
101	0x3c1a516d	0.0094188275
102	0xbb1fe490	-0.0024397708
103	0x3d5ac497	0.05341014
104	0x3cc3ef18	0.02391772
105	0xbd816c2b	-0.063194595
106	0x3c5baab3	0.013407397
107	0x3d124a33	0.035715293
108	0x3d934aad	0.07191978
109	0x3cc8f9a4	0.0245331
110	0xbd510729	-0.05103222
111	0xbd9d0385	-0.07666687
112	0x3d66785f	0.05626714
113	0x3da336b4	0.07969418
114	0x3d0f19eb	0.034936827
115	0xbd9db954	-0.07701364
116	0xbcd49bd7	-0.025953216
117	0x3cd02bbf	0.025411485
118	0x3d3ef4b2	0.04662008
119	0xbd4d75a0	-0.050161004
120	0xbc37b74d	-0.011213136
121	0xbd97ab8f	-0.07405769
122	0x3bf2ca2a	0.0074093537
123	0xbd7dbae6	-0.06194582
124	0x3ce78f03	0.028266435
125	0xbd8b370c	-0.06797609
126	0x3d8738bd	0.06602619
127	0xbca25420	-0.019815505
128	0xbc9f3f9e	-0.019439515
129	0xbd33eafc	-0.04392527
130	0xbd1be19a	-0.038056947
131	0x3db235b0	0.08701646
132	0x3d7b1590	0.06129986
133	0xbc7ff466	-0.015622234
134	0xbd969a99	-0.07353706
135	0xbd9f60cf	-0.07782137
136	0x3dad335a	0.0845706
137	0xbccb4105	-0.024811277
138	0x3d8fd9fc	0.07023999
139	0xbd9e9b3f	-0.077444546
140	0xbcd88b13	-0.026433503
141	0xba8c320b	-0.0010696066
142	0x3ca33fcd	0.019927884
143	0xbd26460a	-0.04059414
144	0xbd0fc967	-0.03510418
145	0xbd3b1889	-0.045677695
146	0x3d2a567a	0.041586377
147	0x3d650a4b	0.05591802
148	0xbbbebba1	-0.005820707
149	0x3d0dd7d1	0.034629647
150	0xbd36b4da	-0.044606067
151	0xbd4f1776	-0.050559483
152	0xbbd24749	-0.0064171893
153	0xbbbce6ae	-0.005764804
154	0x3d327d44	0.043576494
155	0xbd5f99a9	-0.0545899
156	0xbd077db4	-0.033078864
157	0x3d8d85b7	0.0691027
158	0x3d6bccb5	0.05756827
159	0xbc38c5bf	-0.011277615
160	0xbd6f9a39	-0.058496688
161	0x3cba4010	0.022735626
162	0xbd57317e	-0.052537434
163	0x3da9b434	0.08286324
164	0xbd72423a	-0.05914519
165	0x3d704dc0	0.0586679
166	0x3c802318	0.015641734
167	0xbd969694	-0.07352939
168	0xbd0384fa	-0.03210924
169	0xbd5729e4	-0.052530184
170	0x3c028ce2	0.007968159
171	0x3da98b62	0.08278538
172	0x3d634716	0.055487715
173	0xbd1ec5aa	-0.038762726
174	0xbc042544	-0.008065525
175	0x3d9a4db5	0.07534353
176	0x3d09f028	0.033676296
177	0x3d076c84	0.033062473
178	0xbd538869	-0.051643763
179	0x3d289858	0.04116091
180	0xbba238d2	-0.004950621
181	0x3c3b1785	0.011419182
182	0x3dad22f5	0.08453933
183	0xbbdb0b7a	-0.0066847177
184	0xbd1a88ad	-0.037728
185	0x3856c9b4	5.1209427e-05
186	0x3d9b4736	0.07581942
187	0x3b9cd0fc	0.004785655
188	0xbd097ec9	-0.033568177
189	0xbb699ce2	-0.0035646488
190	0x3d46f2a8	0.04857126
191	0x3ca1d45a	0.019754577
192	0x3d116f86	0.035506748
193	0x3b971e3a	0.0046117576
194	0xbd592a13	-0.05301864
195	0xbd9aabf9	-0.075523324
196	0xbd5652cc	-0.052325055
197	0x3d1a86a6	0.037726067
198	0xbc9995be	-0.01874816
199	0x3cad960e	0.021189716
200	0x3d182a48	0.037149698
201	0xbd7c0230	-0.061525524
202	0x3cf4d05b	0.029884508
203	0xbc4ff03a	-0.012691552
204	0x3c85b2bc	0.016320579
205	0xbd32d1f7	-0.04365727
206	0x3d52549c	0.05135022
207	0x3d733750	0.059378922
208	0xbd4a2ea2	-0.04936088
209	0xbd320a82	-0.043467052
210	0x3d749005	0.05970766
211	0xbcf984ed	-0.030458892
212	0x3d932085	0.07183937
213	0xbb50846d	-0.0031817213
214	0xbd8236d8	-0.06358117
215	0xbd8ac64c	-0.067761034
216	0xbd31b18e	-0.04338222
217	0x3d0cf7f1	0.034416143
218	0xbbedd930	-0.007258557
219	0x3d279105	0.040909786
220	0x3d39d230	0.045366466
221	0xbd8adaa9	-0.06779987
222	0x3d93d3d3	0.07218137
223	0xbd54d020	-0.051956296
224	0xbd02583c	-0.031822428
225	0xbd855a30	-0.065113425
226	0xbda75021	-0.0816958
227	0xbcd4b9cc	-0.025967501
228	0x3da85db3	0.08220997
229	0xbd01ca89	-0.031687293
230	0x3cb9b5e8	0.022669747
231	0xbd90258a	-0.0703841
232	0x3c770e5f	0.01507911
233	0x3d6b3b4e	0.057429604
234	0x3d9665d9	0.07343645
235	0xbcefe19c	-0.029282384
236	0xbd26dee9	-0.040739927
237	0x3d1cd233	0.0382864
238	0xbd34c772	-0.04413552
239	0x3d093674	0.033499196
240	0xbcd64225	-0.026154587
241	0xbb01c8d1	-0.0019803534
242	0xbd8ac9e2	-0.06776787
243	0xbd507a28	-0.050897747
244	0xbd72fee5	-0.059325118
245	0xbd878629	-0.06617386
246	0x3d133201	0.03593636
247	0x3ce3c460	0.0278036
248	0xbbf746b4	-0.0075462703
249	0xbd3eae66	-0.046553038
250	0x3d5a1807	0.05324557
251	0x3d8cc135	0.06872789
252	0x3d3f8da1	0.046765927
253	0xbd5329c3	-0.0515535
254	0xbab403d0	-0.0013734046
255	0x3d840474	0.06446162

main.3.weight f4 [32]
0	0x3f80c5ff	1.0060424
1	0x3f7ee18d	0.99562913
2	0x3f804e91	1.0023977
3	0x3f7fe3f8	0.9995723
4	0x3f7f169c	0.99643874
5	0x3f7dfc9d	0.9921358
6	0x3f7ff4df	0.9998302
7	0x3f8046d8	1.002162
8	0x3f805842	1.0026934
9	0x3f8011c2	1.0005419
10	0x3f801a5b	1.0008043
11	0x3f7f62af	0.99759954
12	0x3f800e84	1.000443
13	0x3f7fa19c	0.9985597
14	0x3f8039a0	1.0017586
15	0x3f7ee09a	0.99561465
16	0x3f7fd77c	0.9993818
17	0x3f8036eb	1.001676
18	0x3f800b27	1.0003403
19	0x3f811154	1.0083413
20	0x3f809603	1.004578
21	0x3f80dfb8	1.0068274
22	0x3f7f8492	0.9981166
23	0x3f7ff4d4	0.99982953
24	0x3f7ef7f1	0.9959708
25	0x3f7da511	0.99079996
26	0x3f7fedfc	0.9997251
27	0x3f80c0b8	1.0058813
28	0x3f8061f9	1.0029899
29	0x3f7f0d8c	0.99630046
30	0x3f7fab61	0.9987088
31	0x3f7dfd5d	0.99214727

main.3.bias f4 [32]
0	0x3c38e46c	0.011284929
1	0x3b11612e	0.0022183168
2	0x39044874	0.00012615492
3	0x3bd88fac	0.006608924
4	0xbbd51a90	-0.0065034106
5	0xbc35bb8e	-0.01109208
6	0x3a85dfc6	0.0010213784
7	0xbbb417e7	-0.0054960134
8	0x3b2f100c	0.0026712446
9	0x3bc23673	0.005926901
10	0x3b83fb75	0.0040277787
11	0xbb79c579	-0.0038112088
12	0x3aee8d73	0.0018200114
13	0xbc224451	-0.009903983
14	0xbb838aa7	-0.0040143314
15	0xba5040d6	-0.00079442316
16	0x3ab132b4	0.0013519139
17	0x3ad9b4ae	0.0016609633
18	0xbac96799	-0.0015365958
19	0x3bc73dfe	0.006080388
20	0x3b9e6334	0.0048336033
21	0x3c021e4c	0.007941794
22	0x3a91890b	0.0011103464
23	0xbafc4391	-0.001924621
24	0xbb90b46e	-0.00441604
25	0x396c362f	0.00022526899
26	0x38eac77e	0.00011195148
27	0xbacf0351	-0.0015793835
28	0x3b8f75d6	0.004378061
29	0xbbbaee17	-0.005704652
30	0x3ba1ceba	0.004937974
31	0xbbf312e0	-0.0074180216

main.3.running_mean f4 [32]
0	0xbd03060f	-0.0319882
1	0x3df3799e	0.11888431
2	0x3cc625fd	0.024188036
3	0x3c840421	0.01611525
4	0xbd57b223	-0.05266012
5	0x3de69e40	0.112606525
6	0xbddfb268	-0.109227
7	0x3def4427	0.11682921
8	0x3bbf344f	0.005835093
9	0x3ce2d0d7	0.027687473
10	0x3c16e9d1	0.00921102
11	0x3e0fcb4b	0.14042394
12	0xbdf86646	-0.12128882
13	0xbdd5bdec	-0.10436615
14	0x3df19a56	0.11797015
15	0xbc1c40b6	-0.009536913
16	0x3e2cacb0	0.1686275
17	0x3de69cae	0.11260353
18	0xbd812a51	-0.06306899
19	0x3d47a9b4	0.048745826
20	0xbddabf09	-0.10680968
21	0x3d387bf0	0.04504007
22	0xbca5eb72	-0.02025387
23	0xbce93c99	-0.028471278
24	0xbe52a9f4	-0.20572644
25	0x3d175eab	0.036955517
26	0xbe368dac	-0.17827481
27	0xbd546149	-0.05185059
28	0x3d89a8d4	0.067216545
29	0xbde8f71c	-0.113752574
30	0xbc984ce2	-0.018591348
31	0xbdcf41a6	-0.10119943

main.3.running_var f4 [32]
0	0x3a390fe6	0.0007059559
1	0x3bbe1b24	0.0058015753
2	0x3b141961	0.0022598135
3	0x3a8aa9bd	0.001057915
4	0x3b13613b	0.0022488374
5	0x3c1337dc	0.008985486
6	0x3bd5721c	0.006513847
7	0x3bef7814	0.0073080156
8	0x3b0b67c4	0.0021271566
9	0x3b6aa11f	0.0035801602
10	0x3b2036c7	0.0024446712
11	0x3cace77f	0.02110648
12	0x3c89bba6	0.01681311
13	0x3c130e8d	0.008975637
14	0x3b95b609	0.0045688194
15	0x3b28952d	0.0025723681
16	0x3c86ea2f	0.01646909
17	0x3bb4e928	0.0055209585
18	0x3ac5d3fd	0.0015093085
19	0x3aa69cad	0.0012711488
20	0x3c02c6e2	0.007981988
21	0x3ab30fe3	0.0013661351
22	0x3ba0bbf1	0.004905217
23	0x3b6cbb66	0.003612244
24	0x3c4f3b42	0.0126484055
25	0x3abb5e3f	0.0014295055
26	0x3c87ded8	0.016585752
27	0x3aa78362	0.0012780244
28	0x3bc430a0	0.005987242
29	0x3bcff5bf	0.006346434
30	0x3ae073e3	0.0017124381
31	0x3b218097	0.0024643296

main.5.weight f4 [64, 32, 3, 3]
0	0x3c8e3cc2	0.017362956
1	0x3d1ca0ec	0.038239405
2	0xbd45ecef	-0.04832166
3	0xbb1d5dd0	-0.0024012215
4	0xbbc56153	-0.006023565
5	0x3b088a9d	0.0020834573
6	0x3c8ea111	0.017410787
7	0xbae70724	-0.001762603
8	0xbd6a5a93	-0.057215285
9	0x3d45e8c7	0.048317697
10	0xbb70da52	-0.0036751223
11	0x3b040a04	0.0020147571
12	0x3d10eab8	0.035380095
13	0xbc234dcb	-0.009967278
14	0x3d5d2bb9	0.053996775
15	0x3c941264	0.018075176
16	0x3c1c3998	0.009535216
17	0xbd1b59a9	-0.037927303
18	0xbd4153db	-0.04719911
19	0x3c9d3fd4	0.019195475
20	0x3d189aad	0.037256885
21	0x3c6d7b5b	0.014494742
22	0x3d136cad	0.035992313
23	0xbb606615	-0.0034240533
24	0xbd527cb1	-0.051388446
25	0xbd65faac	-0.056147262
26	0x3d5dc98d	0.054147292
27	0x3ca2475d	0.01980942
28	0xbc519288	-0.012791283
29	0x3cc04a2b	0.023472866
30	0xbcf8a6d7	-0.030352993
31	0x3d1c20f9	0.038117383
32	0xbca20adb	-0.019780567
33	0xbcd1a0e4	-0.025589414
34	0xbba392cc	-0.004991865
35	0x3d0b0cf6	0.033947907
36	0xbbe9ff1c	-0.007141007
37	0x3d64913a	0.05580256
38	0xbd06550d	-0.032795954
39	0xbd365914	-0.044518545
40	0x3d264069	0.04058877
41	0x3ae4673b	0.0017425785
42	0x3beb80d9	0.0071869907
43	0x3b27a7b6	0.0025582141
44	0x3c99732a	0.018731672
45	0x3c7ddd8c	0.015494715
46	0x3d3c6b3e	0.04600071
47	0x3a12c838	0.0005599293
48	0x3c8ed11f	0.017433701
49	0x3d1607de	0.036628596
50	0xbd175f0c	-0.03695588
51	0xbcadfad8	-0.021237776
52	0x3d52ec9a	0.051495172
53	0x3d6d5a0a	0.057947196
54	0xbcd9e633	-0.026599025
55	0x3cb348fa	0.021885384
56	0x3c5db4a2	0.013531836
57	0xbd22ea26	-0.039774083
58	0x3d640d08	0.05567649
59	0x3cae52e1	0.021279754
60	0xbc98f82c	-0.018673025
61	0xbaf5cd72	-0.0018753244
62	0xbd0cc207	-0.034364726
63	0xbd212c69	-0.039348993
64	0xbb270a82	-0.002548844
65	0x3ccf497f	0.0253036
66	0xbd0dedac	-0.03465049
67	0x3ca05b91	0.019574912
68	0x3cf29b93	0.0296152
69	0x3d322896	0.043495737
70	0xbac21a1e	-0.0014808809
71	0xbce22122	-0.02760369
72	0x3bf7e2fa	0.0075648995
73	0xbd789f44	-0.060698763
74	0xbd1bf229	-0.03807274
75	0xbb497bba	-0.0030743913
76	0x3d32175c	0.04347931
77	0x3d2b6076	0.04184004
78	0x3cbb3d0e	0.022856262
79	0xbd1069ed	-0.03525727
80	0xbc2cf792	-0.010557072
81	0x3cf6d5fc	0.030131333
82	0xbd3dfda0	-0.046384454
83	0x3c44bca7	0.012007869
84	0xbbf06290	-0.0073359683
85	0xbd27ba28	-0.040949017
86	0xbd4f5c85	-0.050625343
87	0x3d680698	0.056646913
88	0x3d55d9e9	0.05220977
89	0x3bda57cb	0.006663298
90	0x3ccedded	0.025252307
91	0x3c24d791	0.010061161
92	0x3d2abca4	0.041683808
93	0xbd1bb36b	-0.038012903
94	0x3ca98048	0.020691052
95	0xbb98aacd	-0.004659033
96	0xbc595b4c	-0.013266396
97	0x3cb9e18d	0.022690559
98	0x3d28a69b	0.041174512
99	0x3d198421	0.037479524
100	0xbc3b45eb	-0.011430244
101	0xbb89c3ba	-0.0042042406
102	0xbd63b079	-0.05558822
103	0x3c97879a	0.018497277
104	0x3d437a3e	0.047724
105	0x3d0ab850	0.03386718
106	0x3d482e54	0.048872307
107	0xbd1872ed	-0.037218977
108	0x3c6e348c	0.014538895
109	0x3c897e44	0.016783841
110	0xbd61a454	-0.055088356
111	0xbce9fdad	-0.028563345
112	0x3ce335da	0.02773564
113	0x3c861cf9	0.016371237
114	0x3d7399fe	0.05947303
115	0xbd5f8e8a	-0.054579295
116	0x3d6525f2	0.05594439
117	0xbd5088bf	-0.05091166
118	0xbbcd1f4a	-0.0062598335
119	0xbc003914	-0.0078261085
120	0xbd3f2019	-0.04666147
121	0xbbc5abac	-0.006032428
122	0x3d2b6c19	0.041851137
123	0x3d495bd1	0.04915983
124	0xbc0c60ec	-0.00856803
125	0xbce66ef1	-0.028129073
126	0xbc0d5624	-0.008626495
127	0xbd110d22	-0.035412915
128	0xbb6e5e27	-0.0036372037
129	0xbccef660	-0.025263965
130	0x3d4cff9e	0.050048463
131	0xbd1c7ca2	-0.038204797
132	0x3cfe89bc	0.031071536
133	0x3cb6fa40	0.022336125
134	0x3d355abb	0.04427598
135	0xbd217eb8	-0.03942749
136	0x3c980645	0.018557677
137	0xbc2b8b04	-0.010470156
138	0xbc29e12e	-0.010368628
139	0xbc0e9476	-0.008702388
140	0xbd806b1b	-0.06270429
141	0xbc9ea13b	-0.01936399
142	0x3d533abf	0.051569697
143	0x3ce4550a	0.027872581
144	0xbd8263cf	-0.06366693
145	0xbc5c8155	-0.0134585695
146	0xbd1e4cff	-0.038647648
147	0xbd5d1a6e	-0.053980283
148	0xbcc274d4	-0.023737349
149	0x3d4873d5	0.04893859
150	0x3d053ae6	0.032526873
151	0x3d30dfa4	0.04318203
152	0x393dc871	0.00018099115
153	0x3d3e97a4	0.046531335
154	0xbd014b83	-0.031566154
155	0x3d630b20	0.05543053
156	0x3ad40b71	0.0016177726
157	0xbcd7e104	-0.026352413
158	0x3d3d5b73	0.04622979
159	0xbc896011	-0.01676944
160	0x3c62261c	0.013803031
161	0x3d280514	0.041020468
162	0xbd5acc9f	-0.053417798
163	0xbd175917	-0.036950197
164	0xbcda4c30	-0.026647657
165	0xbd131533	-0.03590889
166	0x3cb0a123	0.021561211
167	0xbc92cd17	-0.01792006
168	0xbc8a4765	-0.016879747
169	0xbd0cfb48	-0.034419328
170	0x3d1572aa	0.036486305
171	0xbcaee638	-0.021350011
172	0xbcf53c7a	-0.029936064
173	0x3ca9c767	0.020724965
174	0xbd81be6c	-0.06335148
175	0xbd32fcc6	-0.043698095
176	0x3d1bb717	0.038016405
177	0xbd31eb42	-0.04343725
178	0x3d28d799	0.041221235
179	0x3d0cbbff	0.034358975
180	0x3c7a62e2	0.015282365
181	0x3d1d7101	0.038437847
182	0x3b02c0a0	0.001995124
183	0x3ba30fc2	0.0049762437
184	0x3d8519b0	0.0649904
185	0x3ce23eb5	0.027617792
186	0x3d2f69e6	0.042825602
187	0x3c128276	0.008942237
188	0x3d75bc8b	0.05999426
189	0xbc888fd4	-0.016670145
190	0x3bfb1fc0	0.007663697
191	0x3d19785e	0.037468307
192	0x3b76e9e1	0.0037676024
193	0xbd3b3c57	-0.04571184
194	0xbd2c6f99	-0.042098615
195	0x3cf33e93	0.029692924
196	0x3d190351	0.03735668
197	0x3d3086dc	0.043097362
198	0xbcb1c29b	-0.02169924
199	0xbbb164d9	-0.0054136333
200	0x3cefd560	0.02927655
201	0x3d60ac02	0.05485154
202	0x3ccf6eb4	0.025321342
203	0x3d2a164b	0.041525166
204	0xbc49445a	-0.012284363
205	0xbc93b49d	-0.018030459
206	0xbd4575d2	-0.048208065
207	0x3adff978	0.0017087897
208	0xbcc1a54a	-0.023638386
209	0xbc080b29	-0.008303442
210	0x3cb18ea5	0.021674464
211	0xbd44fb82	-0.04809142
212	0x3d67eec3	0.056624185
213	0x3b2c30cc	0.0026274202
214	0x3d346001	0.04403687
215	0x3d33afa8	0.04386869
216	0xbc7adac8	-0.015310951
217	0x3c78a86c	0.015176874
218	0x3cf7aea5	0.030234644
219	0x3cf7d8ae	0.030254688
220	0x3c6afbd8	0.014342271
221	0xbd2a0461	-0.041508082
222	0x3ce80716	0.028323691
223	0x3d34fc8e	0.044186167
224	0x3d4bbc3f	0.049740072
225	0xbd442154	-0.047883347
226	0xbd18f7e0	-0.037345767
227	0xbce411a3	-0.027840441
228	0x3c22c68a	0.009935031
229	0x3d0bb4ea	0.03410808
230	0x3d483f00	0.048888206
231	0xbcdc900e	-0.02692416
232	0x3a58007f	0.000823982
233	0x3c044b7f	0.00807464
234	0xbc7c2574	-0.015389789
235	0x3c94a32c	0.018144213
236	0xbd13d8bd	-0.03609537
237	0x3d846ae5	0.06465701
238	0xbd1e13fd	-0.03859328
239	0x3d5e12ef	0.054217275
240	0x3cb805c9	0.022463696
241	0x3d4a4dab	0.049390476
242	0x3c0fc516	0.008775016
243	0xbbe83ba2	-0.007087187
244	0xbc4dc512	-0.012559192
245	0x3c0b1938	0.008489899
246	0x3c4628c3	0.012094679
247	0x3ceb9b50	0.028760582
248	0xb989ff31	-0.0002632081
249	0x3d61f478	0.055164784
250	0xbd579504	-0.052632347
251	0xbd0b4fb6	-0.034011565
252	0xbccb6e1b	-0.024832776
253	0xbd1760d6	-0.036957584
254	0x3cdbe5f8	0.026843056
255	0x3d4042dd	0.046938766

main.6.weight f4 [64]
0	0x3f7d3808	0.9891362
1	0x3f7dc754	0.99132276
2	0x3f7c52f8	0.985641
3	0x3f7bef4c	0.98412013
4	0x3f7c25eb	0.9849536
5	0x3f7c322d	0.9851406
6	0x3f7b319b	0.98122567
7	0x3f7e7080	0.9939041
8	0x3f7e1583	0.99251574
9	0x3f7e1553	0.9925129
10	0x3f7da085	0.9907306
11	0x3f7d7dfd	0.9902037
12	0x3f7ce5a6	0.98787916
13	0x3f7c50bb	0.98560685
14	0x3f7f8a37	0.99820274
15	0x3f7f47e0	0.9971905
16	0x3f7badd6	0.9831213
17	0x3f7e47ac	0.9932811
18	0x3f7fcdfa	0.9992367
19	0x3f7c451d	0.9854296
20	0x3f7d6322	0.9897939
21	0x3f7c86ac	0.9864299
22	0x3f7cebe3	0.98797435
23	0x3f7cf498	0.9881072
24	0x3f7c9ab4	0.9867356
25	0x3f7dd6ac	0.9915569
26	0x3f7d0d97	0.9884886
27	0x3f7d03c9	0.988339
28	0x3f7b7d17	0.98237747
29	0x3f7dd7e7	0.99157566
30	0x3f7e760e	0.9939889
31	0x3f7f8754	0.9981587
32	0x3f7cb636	0.9871553
33	0x3f7fd03c	0.99927115
34	0x3f7b763f	0.98227304
35	0x3f7db7a1	0.9910832
36	0x3f7b3476	0.98126924
37	0x3f7b7966	0.98232114
38	0x3f7d8c63	0.9904234
39	0x3f7d86b5	0.9903367
40	0x3f7d0257	0.98831695
41	0x3f7c43fb	0.9854123
42	0x3f7c795a	0.9862267
43	0x3f7acb7a	0.9796673
44	0x3f7d3f82	0.9892503
45	0x3f7ab60c	0.9793403
46	0x3f7b8f70	0.98265743
47	0x3f7daf27	0.99095386
48	0x3f7e5b6b	0.9935824
49	0x3f7c4f07	0.98558086
50	0x3f7d8c2b	0.99042004
51	0x3f7e8411	0.9942027
52	0x3f7d013b	0.9883
53	0x3f7d64b2	0.98981774
54	0x3f7bdf2d	0.98387414
55	0x3f7d37bc	0.9891317
56	0x3f7ec819	0.99524075
57	0x3f7c3170	0.98512936
58	0x3f7ae746	0.98009145
59	0x3f7b840f	0.9824838
60	0x3f7dbd32	0.99116814
61	0x3f7b4eaf	0.98166937
62	0x3f800284	1.0000768
63	0x3f7eae15	0.9948438

main.6.bias f4 [64]
0	0xbb6ea880	-0.0036416352
1	0xbb2bedd7	-0.0026234293
2	0xba49a5cd	-0.0007692248
3	0xbbb553fb	-0.005533693
4	0xbbd1cd48	-0.0064026453
5	0xbb74f39e	-0.0037376652
6	0xbc9b6d7b	-0.018973103
7	0xb9c3f883	-0.00037378454
8	0xbb80b984	-0.003928365
9	0xbc05d9bb	-0.008169587
10	0xbc2e5e66	-0.0106426235
11	0xbad78750	-0.0016443525
12	0xbb94883f	-0.0045328434
13	0xbc125205	-0.008930688
14	0xbb25530e	-0.0025226506
15	0xba8463e6	-0.0010100573
16	0xbc37e5d7	-0.011224232
17	0xbc451bbc	-0.012030538
18	0xbbe31caf	-0.0069309096
19	0xbb8805aa	-0.004151066
20	0xbbd2fc0d	-0.006438738
21	0xbc38fc3e	-0.011290608
22	0xbad26d5e	-0.0016054322
23	0xbb0b8265	-0.0021287438
24	0xbc1ddec0	-0.009635627
25	0xbbaa2ebc	-0.0051935595
26	0xbb228fb0	-0.0024804883
27	0xbad0e3c4	-0.001593702
28	0xbc11bbe9	-0.008894899
29	0xbb316b07	-0.002707185
30	0xbb601e8e	-0.00341979
31	0xbaf4e4eb	-0.0018683946
32	0xbc2aa82d	-0.010416073
33	0xba8078e1	-0.000980165
34	0xbc70ce34	-0.0146976
35	0xbb00f0a6	-0.0019674688
36	0xbbd5ad8a	-0.0065209316
37	0xbb5dbfca	-0.003383624
38	0xbb86c53d	-0.004112868
39	0xbc032804	-0.008005146
40	0xbc257b5d	-0.010100213
41	0xbc7cdbf9	-0.015433305
42	0xbc0e34b7	-0.00867956
43	0xbc974fd4	-0.018470682
44	0xbbcda9ca	-0.006276344
45	0xbc2c1bd9	-0.010504686
46	0xbbb0ad05	-0.0053917193
47	0xbb5b9f6c	-0.003351177
48	0xbaeb28bd	-0.0017941218
49	0xbc01782b	-0.007902185
50	0xbab2a912	-0.0013630709
51	0xbc05a73c	-0.008157548
52	0xbbb16a99	-0.0054143188
53	0xbb521187	-0.0032053904
54	0xbb8b7810	-0.004256256
55	0xbc1323cc	-0.008980703
56	0xbb8e1029	-0.0043354225
57	0xbb8612e0	-0.0040916055
58	0xbbf50d50	-0.0074783936
59	0xbbd43a38	-0.006476667
60	0xba9c9541	-0.0011946337
61	0xbba635d1	-0.0050723334
62	0xbad420e6	-0.0016184121
63	0xb50507b4	-4.955757e-07

main.6.running_mean f4 [64]
0	0x3e94b26a	0.2904237
1	0x3d65bcef	0.056088384
2	0x3dfd7fbc	0.12377879
3	0xbd66f18e	-0.05638271
4	0x3e34231b	0.17591517
5	0x3cecc7a8	0.028903797
6	0x3e17978b	0.14803903
7	0xbd234e91	-0.03986985
8	0x3c3a6138	0.011375718
9	0x3dbcbf46	0.0921617
10	0xbe06fe91	-0.13183047
11	0x3e28eea7	0.16497289
12	0xbe752d16	-0.2394298
13	0xbeed98c3	-0.4640561
14	0x3c8719b8	0.016491756
15	0x3e6de91b	0.23233454
16	0xbd10519e	-0.035234086
17	0x3e2c59a0	0.16831064
18	0xbd4dd381	-0.050250534
19	0xbd2195ec	-0.039449617
20	0xbdf56b8f	-0.11983406
21	0xbbda9cab	-0.0066715083
22	0x3ec864a7	0.39139292
23	0xbe78ef54	-0.24310046
24	0xbcace6a5	-0.021106074
25	0x3bef41f2	0.0073015625
26	0x3d7a9671	0.06117863
27	0x3c93f603	0.018061643
28	0x3d64a0b8	0.055817336
29	0xbd8f08bd	-0.069840886
30	0xbea6ac61	-0.3255339
31	0xbbf4afdd	-0.0074672536
32	0x3e918070	0.28418303
33	0xbd2fbe80	-0.042906284
34	0xbd383202	-0.044969566
35	0xbdb3a74d	-0.087721445
36	0x3d41f7be	0.047355406
37	0xbcb2f25f	-0.021844087
38	0x3d9ca937	0.07649463
39	0x3bdd60ec	0.0067559388
40	0x3e1c691a	0.15274468
41	0x3c1f0fbd	0.009708342
42	0xbe5c5b74	-0.21519262
43	0xbe39cdc2	-0.18144897
44	0x3e515ca6	0.20445499
45	0xbdf92535	-0.121653
46	0xbe1396b5	-0.14412959
47	0x3ec74f7f	0.38927838
48	0xbdf4463d	-0.119274594
49	0x3d7681b2	0.06018228
50	0x3da2444a	0.07923181
51	0x3bdb653c	0.0066954177
52	0xbe9a4914	-0.3013388
53	0xbe2001af	-0.15625642
54	0x3cdcf0bb	0.026970258
55	0xbe151281	-0.1455784
56	0x3d5b1e92	0.05349595
57	0x3de3e60c	0.11127862
58	0xbe292d0a	-0.16521087
59	0x3d7dc316	0.061953627
60	0x3decb766	0.11558418
61	0x3e8f3c18	0.27975535
62	0x3d13490e	0.035958342
63	0xbde6801e	-0.11254905

main.6.running_var f4 [64]
0	0x3d9f774d	0.07786427
1	0x3daecbe9	0.085349865
2	0x3d7a66a1	0.06113303
3	0x3e1c27f1	0.15249611
4	0x3e135a1b	0.14389841
5	0x3e1ea63e	0.15493104
6	0x3e6eb6e6	0.23311958
7	0x3d9e9d6f	0.07744872
8	0x3d89df19	0.067320056
9	0x3de437f5	0.111434855
10	0x3da253c8	0.07926136
11	0x3dd140cc	0.10217437
12	0x3dc24068	0.09484941
13	0x3ed72594	0.42020857
14	0x3d593720	0.053031087
15	0x3e3ac873	0.18240528
16	0x3dff5850	0.12468016
17	0x3d4f9745	0.05068137
18	0x3d232c8b	0.0398374
19	0x3dd356b4	0.10319272
20	0x3dd965d7	0.106151275
21	0x3d17e192	0.037080355
22	0x3ded362b	0.11582597
23	0x3e079fad	0.13244505
24	0x3dd8db82	0.10588743
25	0x3d504ec5	0.05085637
26	0x3e4f1b82	0.20225337
27	0x3da401f8	0.08008188
28	0x3dcea42d	0.10089908
29	0x3dc88fd5	0.09793059
30	0x3dd65338	0.104650915
31	0x3d6178f8	0.055047005
32	0x3d90f375	0.07077686
33	0x3e0b7209	0.1361772
34	0x3db10e85	0.086453475
35	0x3e24ae1a	0.1608204
36	0x3e0e7a88	0.1391393
37	0x3dda9c67	0.10674363
38	0x3da6dcfe	0.0814762
39	0x3d62167d	0.055197228
40	0x3d776b50	0.060405076
41	0x3e05d3da	0.13069096
42	0x3df00f77	0.117217
43	0x3ddd9bc9	0.10820729
44	0x3e44da7f	0.19223975
45	0x3d8cfeb7	0.068845205
46	0x3e06196f	0.1309564
47	0x3e1c3a70	0.15256667
48	0x3d3844d1	0.044987503
49	0x3da8a7c3	0.08235123
50	0x3e393f73	0.1809061
51	0x3daf98df	0.0857408
52	0x3d809619	0.06278629
53	0x3dd04d49	0.10170991
54	0x3dbec936	0.09315722
55	0x3e32911b	0.17438166
56	0x3dbc60be	0.091981396
57	0x3dd8a412	0.10578169
58	0x3d8cd594	0.06876674
59	0x3e58472d	0.21120901
60	0x3de04fcd	0.10952721
61	0x3df749bc	0.120746106
62	0x3d2b8e07	0.041883495
63	0x3d9f67c4	0.077834636

fc.0.weight f4 [1, 50176]
0	0x3b94c371	0.0045399
1	0xbbc40ea5	-0.005983191
2	0xbb98e2ea	-0.004665722
3	0xbb7ab7c5	-0.0038256508
4	0x3a1cfbbe	0.000598844
5	0xbb14d5c6	-0.0022710427
6	0xbaadb587	-0.0013252952
7	0xbb6ca8b8	-0.0036111306
8	0xbc061058	-0.008182608
9	0xb82ac3fb	-4.071368e-05
10	0xba1d1bfc	-0.00059932447
11	0xbaf33b78	-0.0018557152
12	0xbbab6124	-0.005230086
13	0xbc14f84e	-0.009092404
14	0xbbe465c7	-0.0069701406
15	0xbbe941fb	-0.007118461
16	0xbbc67761	-0.0060567115
17	0xbbd9e5ac	-0.0066496935
18	0xbbba76cd	-0.0056904317
19	0xbb424668	-0.0029644016
20	0xbbc5629c	-0.006023718
21	0x3a1dd36a	0.0006020578
22	0x3a7d013b	0.00096513674
23	0xbad190db	-0.0015988605
24	0xbb95c649	-0.0045707566
25	0xbbf2f42f	-0.007414363
26	0x3b72aeaf	0.003703039
27	0xbb546fd5	-0.003241529
28	0xbab8e4b5	-0.0014106246
29	0xbb5b5ce7	-0.0033472122
30	0x3ba8fed9	0.0051573333
31	0xba053afc	-0.0005082337
32	0x3b6313b6	0.00346492
33	0xbaf81bc9	-0.0018929179
34	0xba57bb15	-0.00082294765
35	0x3b1037dc	0.002200595
36	0x3acfce2c	0.0015854291
37	0xba967b27	-0.0011480794
38	0x3b0001ec	0.0019532396
39	0xbb8b5a77	-0.0042527276
40	0xbb0f225e	-0.0021840553
41	0xbb504a6f	-0.0031782647
42	0x3b0d4f28	0.0021562073
43	0x3a7d030f	0.000965164
44	0xbb581643	-0.0032972253
45	0xbb8fecdb	-0.004392249
46	0x3ad9f8fe	0.0016629992
47	0x3a979159	0.0011563703
48	0xba29e4b6	-0.0006480919
49	0xbafe758f	-0.0019413697
50	0x3aecaab7	0.0018056248
51	0xb92a64fd	-0.00016250084
52	0x3bf5124c	0.007478988
53	0xbb02948a	-0.0019924962
54	0x3b86f457	0.004118483
55	0x3b1f7cc8	0.002433585
56	0xba12d82c	-0.000560167
57	0x3b2d5fa0	0.0026454702
58	0x3b20a425	0.00245119
59	0x3aac76c5	0.0013157955
60	0xbb0039f2	-0.0019565788
61	0x39837e7a	0.000250805
62	0xbb39d0df	-0.0028353257
63	0xbb1c6525	-0.0023863998
64	0xb9899257	-0.00026239708
65	0x3b1d97d3	0.0024046793
66	0x3b16bfa7	0.0023002417
67	0xb983ab2e	-0.00025113806
68	0x3b97d19b	0.004633141
69	0x3b2b311b	0.0026121798
70	0x3b4a13a7	0.0030834468
71	0x3a7f62fb	0.0009742227
72	0x3b38d3fd	0.0028202527
73	0x3b0e19ce	0.0021682861
74	0x3b998096	0.004684518
75	0x3b8ff3bd	0.0043930695
76	0xbb596a31	-0.0033174867
77	0x3b85c529	0.004082341
78	0x3b5b675a	0.003347835
79	0x3ab75cc1	0.0013989435
80	0x3a7aeeb3	0.0009572312
81	0x3a046d10	0.0005051652
82	0xbb478640	-0.003044501
83	0xbb01eed3	-0.0019826188
84	0x3b2b9733	0.002618265
85	0xba844a0f	-0.0010092872
86	0xbb485278	-0.0030566733
87	0xb850bdd3	-4.9767852e-05
88	0x3acd72ad	0.0015674435
89	0xbabc5d6b	-0.0014371102
90	0x3b9f7561	0.0048662876
91	0x3b673988	0.0035282094
92	0x3a96e923	0.0011513572
93	0x3b238e8e	0.0024956795
94	0xba267caa	-0.0006350974
95	0x3bc3eb7b	0.005978999
96	0x3b6fb0ba	0.0036573843
97	0x3aa33025	0.0012450261
98	0x3acfbe01	0.0015849472
99	0x3ad2bc53	0.0016077854
100	0x3b46fc62	0.0030362834
101	0x3b9f82a0	0.0048678666
102	0x3b03f8cb	0.0020137306
103	0xbb6d760b	-0.003623369
104	0x3b75f4ab	0.0037529867
105	0xbaa333de	-0.0012451371
106	0x3b14e23c	0.0022717854
107	0xbada6d65	-0.0016664682
108	0x3bb2f205	0.00546098
109	0x3a4e3d95	0.0007867453
110	0x3b98637a	0.0046505304
111	0xbb722b0f	-0.0036951934
112	0xbb8e9e85	-0.004352393
113	0x3ac2696f	0.0014832447
114	0x3a9b4ee8	0.0011849077
115	0xbb900beb	-0.004395952
116	0x3b178894	0.0023122178
117	0x3b89f9ff	0.00421071
118	0x3af9116e	0.0019002387
119	0xba3869cb	-0.00070348073
120	0x3b8c271d	0.0042771236
121	0x3ba4273b	0.0050095594
122	0xbaf8b42e	-0.0018974596
123	0xbb51c299	-0.0032006858
124	0x3b06b231	0.0020552988
125	0x3ada23bc	0.001664273
126	0xbb97afa6	-0.004629093
127	0xba90a95f	-0.0011036805
128	0x3a06d5ec	0.0005143571
129	0x3b402d11	0.0029323737
130	0xba1a04fb	-0.0005875376
131	0xba1f918e	-0.0006087058
132	0x3b88dfd0	0.004177071
133	0x3b86e912	0.0041171396
134	0x3b196530	0.002340626
135	0x3a175019	0.00057721284
136	0x3b5dcb55	0.003384312
137	0x3b5dc677	0.0033840218
138	0xbb02a9cc	-0.0019937633
139	0xbaa38320	-0.0012474991
140	0xbb15ffd4	-0.002288808
141	0xbb9de3fc	-0.0048184376
142	0x3af34a8e	0.0018561648
143	0xbb1d3872	-0.0023989943
144	0xbb0dad32	-0.0021618125
145	0x3b24ef36	0.0025166995
146	0xbb4e23e0	-0.0031454489
147	0x3b58bda3	0.0033072017
148	0x3beaf0e1	0.0071698283
149	0x3b6a0425	0.0035708037
150	0x3b8486ba	0.004044381
151	0x3aadffd2	0.0013275093
152	0x3b7a83ea	0.00382256
153	0x3b6009b9	0.0034185483
154	0xba433e85	-0.0007447976
155	0xbaf4cfd5	-0.0018677661
156	0xbb97a8b2	-0.0046282643
157	0xbb701fb6	-0.0036639995
158	0xbac430c6	-0.0014968149
159	0xbb1edc31	-0.002424013
160	0x3b52df39	0.0032176508
161	0x3ac316b4	0.0014884085
162	0x3b1bdd46	0.0023783012
163	0xbb2061b7	-0.0024472305
164	0xb9983da9	-0.0002903764
165	0xb91c81e5	-0.00014925709
166	0xbb0e0b69	-0.0021674281
167	0x39b32b5e	0.00034173852
168	0xbbe71936	-0.007052566
169	0x3aee6d4e	0.0018190534
170	0xbbacddfb	-0.0052754856
171	0xbb394275	-0.0028268371
172	0x3ae0a6cc	0.0017139553
173	0xb9c03519	-0.00036660655
174	0xba4c8e95	-0.0007803229
175	0x3b875152	0.004129567
176	0xbadeb898	-0.0016992269
177	0x3aa9c90e	0.0012953596
178	0xb969dc09	-0.00022302581
179	0xb90893c5	-0.00013025019
180	0x3b7ceccb	0.0038593288
181	0xbb1469a6	-0.002264598
182	0xbaac4abe	-0.0013144834
183	0xbbbcba90	-0.0057595447
184	0xb923e903	-0.00015631695
185	0xbaa3b2e6	-0.0012489229
186	0xbb7ebca8	-0.0038869772
187	0x3abd6912	0.0014450869
188	0xbb0fbc5d	-0.0021932342
189	0x3bad917f	0.0052968855
190	0x3b05a9a6	0.0020395308
191	0x3a15f1b7	0.0005719917
192	0x399c6f86	0.0002983773
193	0xbb35d6a0	-0.0027746335
194	0xbb24a3d9	-0.0025122075
195	0x3b81fd4a	0.003966962
196	0x3b202ef2	0.0024442044
197	0xb9c1fb69	-0.00036999144
198	0x3abe28d6	0.001450802
199	0x3a0738ea	0.0005158322
200	0x381e0081	3.7670605e-05
201	0x3b555af8	0.0032555442
202	0x3b847f2f	0.004043482
203	0xbabb0e3c	-0.001427121
204	0x3b653906	0.0034976616
205	0xbace7fcd	-0.001575464
206	0x3afa0dbf	0.0019077583
207	0x3b283e88	0.0025672037
208	0x3b4602f8	0.0030214172
209	0x3b5a5ec3	0.0033320643
210	0xba5c83ad	-0.0008411955
211	0x3b4683f3	0.003029105
212	0xbbcd3712	-0.0062626684
213	0xba9eeb7a	-0.0012124621
214	0x3ab1ff33	0.0013580084
215	0xbba9107f	-0.005159437
216	0x3b98d2d1	0.004663803
217	0x3b91fc5d	0.004455133
218	0x3b5e9e6c	0.0033968939
219	0xbb34acc9	-0.0027568808
220	0x3ba3643a	0.004986313
221	0x3b0f56d2	0.0021871817
222	0xba3992b5	-0.0007079051
223	0x3bd90a3e	0.0066235354
224	0xbba53106	-0.0050412444
225	0x3a779b36	0.00094454305
226	0x39851ad1	0.00025387717
227	0x3bd3b764	0.006461071
228	0x3ae4f176	0.001746698
229	0xbb932415	-0.0044903853
230	0x3ab6566b	0.0013911253
231	0x3b1d8b34	0.002403927
232	0x3a4df407	0.00078564923
233	0xbb8c1ab1	-0.004275643
234	0x3a8178d2	0.0009877926
235	0xba532652	-0.00080547214
236	0x3b0aaef7	0.0021161416
237	0x3a521fba	0.0008015592
238	0xbb112b90	-0.002215121
239	0xbbbdf9e2	-0.0057976106
240	0xba01ee1f	-0.0004956442
241	0xbbbeff05	-0.0058287405
242	0xbadef89e	-0.001701135
243	0xbbb41e57	-0.005496781
244	0xbb2e2850	-0.002657432
245	0xbb021490	-0.0019848682
246	0x3b6be171	0.0035992528
247	0x3b4ada13	0.0030952736
248	0x3af20798	0.0018465398
249	0x3baee8d8	0.0053378157
250	0x3b8a8a87	0.0042279395
251	0xb93203b2	-0.0001697678
252	0xbbd94d20	-0.0066315085
253	0xbb967121	-0.0045911227
254	0x3b4514c6	0.0030072196
255	0xbb077e80	-0.0020674765
